torch_opt/traced_model.pt (torch, 5538 bytes, 2 tensors)

weight f4 [5, 10]
00000000: ecaf 99be 8846 bdbd 1bfc 06bc d449 ac3d
00000010: 94e4 df3d 28ac 093e 6028 373e 581f b7bd
00000020: d680 83bd 6aaf 93be 5156 0dbe 464b 8cbe
00000030: e33a 31be 3706 913e 098c 95bc c9c6 44be
00000040: def0 013e d9ff c13d e17c 90be cdfb 913e
00000050: 2f17 583e 15f6 923e 7e28 c73d d00c 8bbb
00000060: 643b 1fbe 005a 233d 58b5 cf3d fcf5 373d
00000070: 1c26 62be 04de 153b c0ba 7e3c 2f33 83bc
00000080: 031a 9abe b62e f9bd 67d5 313e a53b 9a3c
00000090: ae2e 64be 7082 52be 927f b3bd b97c 56bd
000000a0: 9bac 8bbe 2f29 803e 6c6d 693e 2e97 3d3e
000000b0: 524b b43d 7ea0 5c3d dc2e 793e 984b 87be
000000c0: 6b0f db3d ccf3 9e3e
-0.3001703 -0.092419684 -0.008238818 0.08412519 0.1093227 0.13444579 0.17886496 -0.08941525
-0.06421058 -0.28844768 -0.13802458 -0.2740118 -0.1730762 0.28325054 -0.01825525 -0.19216456
0.1268954 0.09472627 -0.28220275 0.2851242 0.21102594 0.2870337 0.0972452 -0.0042434707
-0.1555 0.039880753 0.101420105 0.044912323 -0.2208485 0.0022867927 0.015547454 -0.016015617
-0.3009797 -0.121671125 0.17366563 0.018827269 -0.22283432 -0.2055757 -0.087645665 -0.05236504
-0.27280125 0.2503142 0.22795647 0.18514702 0.08803429 0.053863995 0.24334282 -0.2642486
0.106963 0.31045377

bias f4 [5]
00000000: 1532 143e d932 38be 8726 c9ba 95fd 053d
00000010: 5ccb 883d
0.1447223 -0.17988147 -0.0015346565 0.032712538 0.06679413
